Content/Network-1.pt (torch, 10192 bytes, 2 tensors)

weight f4 [32, 1, 8, 8]
0	0x3dab9dc2	0.08379699
1	0xbd3a6c74	-0.045513585
2	0x3b6d70c0	0.0036230534
3	0x3c86aa08	0.0164385
4	0xbdbb2d26	-0.09139471
5	0x3d6131d0	0.054979146
6	0x3d45fdd0	0.048337758
7	0x3de260b0	0.11053598
8	0x3dc2b786	0.095076606
9	0xbb78db80	-0.003797263
10	0x3de26fea	0.11056502
11	0x3d1599c0	0.03652358
12	0xbcf1a478	-0.02949737
13	0xbd905900	-0.070482254
14	0x3ded1902	0.115770355
15	0xbda2796a	-0.07933314
16	0xbc467d20	-0.012114793
17	0xbd256d70	-0.04038757
18	0x3c5b63e0	0.013390511
19	0xbd5c3bb8	-0.05376789
20	0xbd92eb58	-0.071737945
21	0x3dc3e0ac	0.09564337
22	0x3df36210	0.11883938
23	0x3d2cc570	0.04218048
24	0x3d53cd8c	0.051709697
25	0xbd8a4778	-0.06751913
26	0xbc4ce190	-0.01250495
27	0x3d8d4642	0.06898166
28	0xbcf81e08	-0.030287758
29	0xbd980b7c	-0.074240655
30	0x3d98d596	0.07462613
31	0x3df5ce4a	0.12002237
32	0xbdd3390e	-0.10313617
33	0x3d5d7c80	0.05407381
34	0xbdbf7a20	-0.09349465
35	0xbddee94c	-0.108843416
36	0x3cac9fd0	0.021072298
37	0x3d1801bc	0.03711103
38	0x3caeb2e0	0.021325529
39	0x3c82f688	0.015986696
40	0xbcf3fdb8	-0.029784068
41	0x3ca49978	0.02009271
42	0xbdde1050	-0.10842955
43	0x3db73360	0.08945346
44	0x3cde8ca8	0.02716668
45	0x3cbefd18	0.023314044
46	0x3dcc9e60	0.09991145
47	0x3ba19960	0.004931614
48	0xbd78e33c	-0.060763583
49	0x3daeb3e8	0.08530408
50	0xbde355f6	-0.1110038
51	0xbdedf7dc	-0.11619541
52	0x3cdc30d0	0.026878744
53	0x3d799d38	0.06094095
54	0xbded61d0	-0.11590922
55	0x3d955e2e	0.07293354
56	0xbd3df880	-0.046379566
57	0xbd197d18	-0.037472814
58	0x3da72a54	0.0816237
59	0x3d5eb7a8	0.054374367
60	0x3d2fec3c	0.0429499
61	0x3d82e71c	0.06391737
62	0x3d9df81a	0.07713337
63	0xbd81a05a	-0.06329413
64	0x3dc71abe	0.097218975
65	0xbdf97c50	-0.12181914
66	0x3df201b6	0.118167326
67	0xbd99447a	-0.07483764
68	0xbd8ee0aa	-0.06976445
69	0x3c96e890	0.018421441
70	0xbdb7c6ce	-0.08973466
71	0x3dfe56b0	0.12418878
72	0x3d1aa24c	0.037752435
73	0x3c363780	0.011121631
74	0x3dc1855a	0.09449263
75	0xbdc94314	-0.09827247
76	0xbd810870	-0.063004375
77	0x3db73f3c	0.08947608
78	0x3dfff0ee	0.124971256
79	0xbcf68200	-0.030091286
80	0x3dbb06f4	0.091321856
81	0xbd087828	-0.033317715
82	0x3dbf5dea	0.093440846
83	0x3dcdc41c	0.100471705
84	0x3c27f470	0.01025115
85	0x3c3cd6f0	0.0115258545
86	0x3dc0d372	0.0941533
87	0xbdc0c1c2	-0.09411956
88	0xbd98d89a	-0.074631885
89	0x3df05bfa	0.11736293
90	0x3c1ad060	0.0094490945
91	0xbdcec040	-0.100952625
92	0x3db23022	0.08700587
93	0x3d998028	0.07495147
94	0xbd069988	-0.032861263
95	0x3dd11558	0.10209149
96	0x3da80c76	0.08205502
97	0xbcf6f120	-0.030144274
98	0xbd1f03c0	-0.038821936
99	0xbd9d81d6	-0.0769078
100	0x3db8ab84	0.09017089
101	0x3de1e4b8	0.11029953
102	0x3d8debb8	0.069297254
103	0x3d712188	0.05886987
104	0x3d79ccb0	0.06098622
105	0x3cd8f5c8	0.026484385
106	0x3c83dd08	0.016096607
107	0x3cb06a08	0.021534935
108	0x3db7739a	0.08957596
109	0xbdc27ec8	-0.09496838
110	0xbd2ea544	-0.04263808
111	0x3d396c74	0.045269445
112	0x3c6b3fe0	0.014358491
113	0x3d61e940	0.055154085
114	0xbddabb5a	-0.10680266
115	0x3d9ff13a	0.07809682
116	0xbd637b48	-0.055537492
117	0xbd574f20	-0.052565694
118	0x3dc490b0	0.095979095
119	0x3dc16d2a	0.094446495
120	0x3ca76708	0.020434871
121	0xbb8b7440	-0.0042558014
122	0x3c53c400	0.012925148
123	0xbc9d05c0	-0.01916778
124	0xbc966a68	-0.018361285
125	0x3d0086c4	0.031378523
126	0x3de788b6	0.113053724
127	0xbde3ade0	-0.111171484
128	0xbd9200a6	-0.0712903
129	0x3ddf215a	0.10895033
130	0x3df59a92	0.119923726
131	0xbc90db70	-0.017682761
132	0xbda40fbe	-0.08010815
133	0x3d6ec728	0.0582954
134	0x3d9016c4	0.07035592
135	0x3de1212a	0.10992654
136	0xbd8ec3c6	-0.069709346
137	0xbd9a5f92	-0.0753776
138	0xbd3f432c	-0.04669492
139	0xbccb73d8	-0.024835512
140	0x3d26c1c4	0.040712133
141	0x3d2cda54	0.0422004
142	0x3c668780	0.014070392
143	0xbd1a4bf8	-0.037670106
144	0xbda071be	-0.078341946
145	0x3c5a8b90	0.013338938
146	0x3de3e31a	0.111273006
147	0x3d6202d4	0.05517848
148	0xbcf726f0	-0.030169934
149	0xbdb4ccf8	-0.08828157
150	0x3dac3de6	0.08410244
151	0x3dd59bfe	0.10430144
152	0xb9a1ae00	-0.00030837953
153	0xbd23fc98	-0.040035814
154	0x3c5b2a40	0.013376772
155	0x3d9d33aa	0.0767587
156	0x3da78c30	0.081810355
157	0x3cfba940	0.030720353
158	0xbd404e50	-0.046949685
159	0xbd9bb670	-0.076031566
160	0xbde5c158	-0.11218518
161	0x3ce19e78	0.027541384
162	0xbd645954	-0.055749252
163	0xbd897346	-0.0671144
164	0xbdc5897a	-0.09645362
165	0x3d3102fc	0.043215737
166	0xbd9b23ac	-0.07575163
167	0xbdbf7f34	-0.09350434
168	0x3d0abb20	0.033869863
169	0xbd6ca9a0	-0.057778955
170	0xbd871b22	-0.06596972
171	0x3dc0453c	0.093882054
172	0x3ceb9fd8	0.028762743
173	0xbdc2f470	-0.09519279
174	0x3d17a508	0.03702262
175	0x3de84fda	0.113433555
176	0xbd598ccc	-0.05311279
177	0xbdb998d4	-0.09062353
178	0xbdbd8d2c	-0.09255442
179	0x3c52e6f0	0.012872443
180	0xbcb16310	-0.021653682
181	0x3d989562	0.074503675
182	0xbcf36200	-0.029709816
183	0xbd620cfc	-0.055188164
184	0xbd57af98	-0.052657694
185	0x3d7c3e88	0.061583072
186	0x3dad0aa4	0.08449295
187	0xbda4b780	-0.08042812
188	0xbd9ec914	-0.07753196
189	0x3cc28a88	0.023747697
190	0xbcda9a38	-0.026684865
191	0x3c87ecc8	0.016592398
192	0x3d107db4	0.03527613
193	0xbd99ef66	-0.07516365
194	0x3d56efb4	0.052474692
195	0xbcfe0c00	-0.031011581
196	0xbcce01b8	-0.025147304
197	0x3df36b24	0.1188567
198	0x3df5201e	0.119690165
199	0xbd139110	-0.036027014
200	0x3c36b400	0.011151314
201	0x3defca22	0.11708476
202	0xbdf5d09a	-0.12002678
203	0xbdf4e29c	-0.11957285
204	0x3bf15fe0	0.0073661655
205	0xbd142304	-0.036166206
206	0x3da5de6e	0.08099066
207	0xbdb9c90c	-0.0907155
208	0xbdebd732	-0.115156546
209	0x3da4ae78	0.0804109
210	0xbd0c6bd0	-0.034282506
211	0x3d4980ac	0.049194977
212	0x3ddd0282	0.10791494
213	0x3cf299a0	0.02961427
214	0xbdca8b38	-0.09889835
215	0xbd54a3dc	-0.05191408
216	0xbcc2d9e8	-0.023785546
217	0x3da7efd6	0.08200042
218	0x3dcb898c	0.09938344
219	0xbbb32cc0	-0.005467981
220	0x3dc24e16	0.0948755
221	0xbd4800f8	-0.04882905
222	0x3ceb5b78	0.02873014
223	0x3dfe6d68	0.12423211
224	0xbda5bcb6	-0.080926344
225	0xbd8d2334	-0.0689148
226	0xbd62e5e0	-0.055395007
227	0x3d9f3d84	0.07775405
228	0x3d90980e	0.07060252
229	0xbda5a4d4	-0.08088079
230	0x3db46996	0.088092014
231	0x3c9c3ac0	0.019070983
232	0x3cb2d470	0.021829814
233	0xbcb5d5d8	-0.022196695
234	0xbded417c	-0.11584756
235	0xbca10f08	-0.019660488
236	0x3df9970c	0.12187013
237	0xbc02c670	-0.0079818815
238	0x3c7a31c0	0.01527065
239	0x3dc7c5b8	0.09754509
240	0xbc2bc430	-0.010483786
241	0xbde6da24	-0.11272076
242	0xbdbccf6a	-0.092192486
243	0x3d22f28c	0.039782092
244	0xbdcde666	-0.10053711
245	0xbc0baac0	-0.008524597
246	0x3d96c4a0	0.07361722
247	0xbdaa0966	-0.08302574
248	0x3dfb3890	0.12266648
249	0x3d52ed84	0.051496044
250	0xbdc12f12	-0.09432806
251	0x3d8c30d8	0.06845254
252	0xbb389a80	-0.002816826
253	0xbcb6f6a8	-0.022334412
254	0xbd9e273e	-0.077223286
255	0x3dc26230	0.09491384

bias f4 [32]
0	0x3dbdd8b6	0.0926985
1	0xbd1c31f8	-0.03813359
2	0x3daf044e	0.08545743
3	0x3db5339c	0.08847734
4	0xbdc705ca	-0.09717901
5	0x3dffdcba	0.12493272
6	0x3db855da	0.0900075
7	0xbd911bb8	-0.07085365
8	0x3da7f8f6	0.082017824
9	0xbd642cf0	-0.05570692
10	0xbdce20ae	-0.10064827
11	0x3bb39b60	0.0054811686
12	0xbd22dc64	-0.039760962
13	0xbdbc1f26	-0.091856286
14	0x3d287530	0.041127384
15	0x3dc09622	0.094036356
16	0xbd44d3d4	-0.048053578
17	0x3cbcd0b8	0.023048744
18	0xbd8f4dc6	-0.06997256
19	0xbdaf6d92	-0.08565821
20	0xbd0313d0	-0.032001317
21	0xbd1f5bdc	-0.038905963
22	0x3c026910	0.007959619
23	0x3d189690	0.037252963
24	0xbdbf2130	-0.09332502
25	0xbddb0aa0	-0.10695386
26	0x3cf822b8	0.030289993
27	0x3ceff648	0.02929224
28	0xbd508934	-0.050912097
29	0xbd819e3a	-0.063290074
30	0xbde961ac	-0.113955826
31	0xbdd45fe2	-0.10369851
