Content/Network-5.pt (torch, 149584 bytes, 2 tensors)

weight f4 [64, 64, 3, 3]
0.030596104 -0.032321423 -0.017567059 -0.022775536 0.023375537 -0.035590842 0.013206426 0.038510453
0.02160943 -0.014114499 -0.022172745 -0.021294152 -0.03680668 -0.00035379827 0.03874963 -0.038110375
-0.033096068 -0.01475664 0.00773992 0.027540449 -0.0006416626 0.032620553 -0.0009905063 -0.038245782
0.034604754 -0.032191984 -0.04106871 -0.028042044 0.0032571591 0.033119086 -0.00025361404 -0.04093238
0.013650309 -0.012435392 0.015476283 0.018688876 -0.0012341589 -0.021307375 0.031528283 -0.020738676
0.025577057 -0.019228846 -0.022966143 -0.013524603 0.018269386 0.03805134 -0.02607429 -0.019452503
-0.029760614 -0.0069615096 -0.009341538 0.038787458 -0.007908002 -0.040493038 -0.017101943 0.01424551
0.023129467 0.022476148 -0.032039013 -0.003455922 0.02643149 -0.0243837 -0.017763793 -0.03613576
-0.007773619 0.038729068 -0.03675924 -0.018107187 -0.016816422 0.0096206665 -0.025123825 -0.0105970055
-0.002291683 0.025697153 0.009335395 -0.037025433 -0.0026904605 -0.012564138 -0.005592007 -0.0148424115
-0.027157962 0.03924874 -0.008492943 0.031830717 -0.033957973 -0.0014818646 0.038786408 -0.039769497
-0.018893387 -0.02353051 0.014055595 -0.028241616 0.011356454 -0.007131081 -0.030114591 -0.020299053
-0.015726393 0.0344134 0.029652987 -0.0037101954 -0.005268369 0.026277784 0.0092751235 0.034723748
-0.035680693 0.02900521 0.02733 0.019795489 -0.035959378 0.0037641712 -0.020383349 0.0039152987
0.00816454 0.004976481 -0.021619216 -0.03235679 -0.019637764 -0.0051571317 -0.007736817 -0.0004030019
0.0006712787 0.04031909 0.029411841 0.03922293 -0.032539994 -0.011776637 -0.026826208 -0.03788696
0.010331761 0.010982964 0.009406824 -0.033179086 -0.00024987385 0.020709228 0.039032597 -0.0025205351
0.002072785 0.00067710504 0.029912006 0.0041098483 -0.011463538 0.02168959 -0.0034900792 -0.038557123
-0.035123207 -0.021198403 -0.027349358 -0.028542653 0.0023938455 -0.00470319 -0.036466192 -0.017191624
-0.029901054 -0.037607506 0.02854282 -0.028638184 0.02276988 0.03426623 -0.015662467 -0.00040615723
-0.0056248903 0.0339603 0.018290084 0.0109972805 -0.028505018 0.040477443 0.040909212 -0.01206873
-0.022233617 0.028518159 -0.016079566 -0.02433843 0.02574541 0.0009905361 0.012455609 0.0377031
-0.01218923 -0.030595135 0.015416443 0.012527417 -0.0047503747 -0.0034668036 -0.018063948 -0.01932694
0.00086120144 0.0005334206 0.021233786 0.014078125 0.012077555 -0.03517206 0.019465685 -0.032714605
0.02317318 0.018937487 0.041207787 0.03409001 -0.031627074 0.036514524 -0.015435493 -0.03247469
-0.037192017 0.011810303 0.041321043 -0.029135406 -0.004404057 -0.036993794 -0.00047937408 0.033994813
0.017199706 0.037621547 -0.020682778 0.008428335 0.019469265 -0.032866042 0.022747185 -0.032288875
0.022662777 0.02373689 -0.013470909 -0.022767162 0.03616554 0.024696898 4.9266964e-05 0.014129531
-0.014106398 0.017350052 -0.040384002 -0.021409359 -0.03414326 -0.02177484 0.019591197 -0.011776965
0.035840917 -0.018375006 0.013791475 -0.024764663 -0.027739625 0.015136391 -0.021398991 -0.032426275
0.022714723 0.039038185 0.024380151 -0.007815439 0.028700631 0.026179794 -0.030475408 0.0064730644
0.0029125363 -0.00991869 -0.02819403 -0.019098997 0.037330676 -0.02433385 0.022601087 0.00751796
00000000: aea4 fa3c 7863 04bd cbe8 8fbc c393 babc
00000010: 0e7e bf3c b4c7 11bd c45f 583c 23bd 1d3d
00000020: 4206 b13c 8040 67bc 9ea3 b5bc 1371 aebc
00000030: 9ac2 16bd 007e b9b9 efb7 1e3d a019 1cbd
00000040: be8f 07bd d6c5 71bc 289f fd3b 829c e13c
00000050: 4035 28ba 219d 053d e0d3 81ba 9ca7 1cbd
00000060: b7bd 0d3d bedb 03bd aa37 28bd 6eb8 e5bc
00000070: 1076 553b e1a7 073d 80f7 84b9 b6a8 27bd
00000080: 8ca5 5f3c d0bd 4bbc 3c90 7d3c 6a19 993c
00000090: 80c3 a1ba ce8c aebc cd23 013d 28e4 a9bc
000000a0: fa86 d13c d085 9dbc 7e23 bcbc 4c96 5dbc
000000b0: aea9 953c b9db 1b3d c099 d5bc db5a 9fbc
000000c0: 88cc f3bc 601d e4bb 400d 19bc 99df 1e3d
000000d0: 9090 01bc 07dc 25bd 6019 8cbc 0066 693c
000000e0: 027a bd3c e61f b83c 573b 03bd c07c 62bb
000000f0: da86 d83c 53c0 c7bc 6085 91bc 1703 14bd
00000100: d8b9 febb 5fa2 1e3d db90 16bd 8655 94bc
00000110: 98c2 89bc 00a0 1d3c 7bd0 cdbc 109f 2dbc
00000120: 1030 16bb d682 d23c 7cf3 183c fba7 17bd
00000130: 7052 30bb d0d9 4dbc 283d b7bb 962d 73bc
00000140: 607a debc 49c3 203d fc25 0bbc ed60 023d
00000150: 8417 0bbd 203b c2ba 7fde 1e3d 57e5 22bd
00000160: 4ec6 9abc 0ec3 c0bc 7049 663c f65a e7bc
00000170: 6c10 3a3c d8ab e9bb e0b2 f6bc 334a a6bc
00000180: a3d4 80bc 11f5 0c3d d2ea f23c c026 73bb
00000190: 48a2 acbb 8244 d73c b0f6 173c 7d3a 0e3d
000001a0: eb25 12bd 569c ed3c 2ae3 df3c 262a a23c
000001b0: 244a 13bd 50b0 763b fbfa a6bc e84b 803b
000001c0: 90c4 053c c011 a33b c81a b1bc 8e88 04bd
000001d0: 60df a0bc 28fd a8bb 2085 fdbb 004a d3b9
000001e0: c0f8 2f3a a125 253d 1af1 f03c 39a8 203d
000001f0: a848 05bd ccf2 40bc a3c2 dbbc 5b2f 1bbd
00000200: 8c46 293c e4f1 333c 141f 1a3c cbe6 07bd
00000210: 8001 83b9 66a6 a93c a5e0 1f3d 902f 25bb
00000220: 90d7 073b c07f 313a 060a f53c e8ab 863b
00000230: 90d1 3bbc 5eae b13c d0b9 64bb 13ee 1dbd
00000240: 5add 0fbd 46a8 adbc c30b e0bc 48d2 e9bc
00000250: 10e2 1c3b 381d 9abb 935d 15bd 73d5 8cbc
00000260: 0ef3 f4bc 540a 1abd a2d2 e93c a09a eabc
00000270: e687 ba3c bf5a 0c3d 934e 80bc 80f1 d4b9
00000280: 0051 b8bb f519 0b3d 16d5 953c f02d 343c
00000290: 5b83 e9bc adcb 253d 6b90 273d ecbb 45bc
000002a0: 4623 b6bc ea9e e93c 4bb9 83bc 6361 c7bc
000002b0: 0ae8 d23c e0d4 813a 9c12 4c3c 916e 1a3d
000002c0: 56b5 47bc a6a2 fabc 4095 7c3c cc3f 4d3c
000002d0: 08a9 9bbb 5033 63bb d8fa 93bc 8853 9ebc
000002e0: 40c2 613a 40d5 0b3a 7af2 ad3c f0a7 663c
000002f0: f0e0 453c 9410 10bd 8076 9f3c c0ff 05bd
00000300: aed5 bd3c ca22 9b3c 7fc9 283d f7a1 0b3d
00000310: 648b 01bd 4190 153d 26e5 7cbc 2e04 05bd
00000320: a856 18bd 0080 413c 4140 293d 60ad eebc
00000330: e84f 90bb ce86 17bd 8054 fbb9 253e 0b3d
00000340: 66e6 8c3c 0d19 1a3d ee6e a9bc 0017 0a3c
00000350: 027e 9f3c 8b9e 06bd 4e58 ba3c 5741 04bd
00000360: 4aa7 b93c de73 c23c 16b5 5cbc 3382 babc
00000370: 5122 143d 2651 ca3c 00a4 4e38 8c7f 673c
00000380: 861e 67bc b221 8e3c b269 25bd ae62 afbc
00000390: ced9 0bbd 2661 b2bc b87d a03c 2cf4 40bc
000003a0: edcd 123d 2e87 96bc a4f5 613c 43df cabc
000003b0: 363e e3bc a0fe 773c f04c afbc 6ad1 04bd
000003c0: 3a14 ba3c 81e6 1f3d e2b8 c73c 540c 00bc
000003d0: 961d eb3c 0277 d63c 90a7 f9bc 001c d43b
000003e0: 40e0 3e3b 0082 22bc 2bf7 e6bc 8075 9cbc
000003f0: 0de8 183d c857 c7bc ea25 b93c 3859 f63b

bias f4 [64]
0.031532492 -0.01710881 -0.029921234 0.01302987 0.023647893 -0.026028737 0.004918173 0.041132208
0.0050014555 0.032531995 -0.034187447 0.013029337 -0.017180473 -0.032768514 -0.015154984 -0.016659405
-0.0367274 -0.0090753995 -0.015821632 -0.017387932 -0.024545293 -0.032614745 0.016621117 -0.0064476095
0.041392032 -0.005092267 0.015143868 -0.0063502304 -0.027715495 -0.01659685 -0.017036498 -0.021662712
-0.034286972 0.03208554 0.03418744 -0.010236695 -0.025064072 0.00322425 0.037441712 0.008743241
0.028165538 0.03245383 0.026762817 -0.038110033 -0.024660662 0.016015127 0.017797902 0.004375607
-0.03041334 0.019957315 -0.019505113 0.040343303 0.020284716 0.016819168 0.005534228 0.035957266
-0.014051184 0.04113025 -0.013270091 0.0013121665 0.018896576 0.03526343 0.005765822 0.031525422
00000000: 3728 013d c627 8cbc 601d f5bc 3c7b 553c
00000010: 3ab9 c13c 383a d5bc a028 a13b 3f7a 283d
00000020: 40e3 a33b 4540 053d 2308 0cbd 0079 553c
00000030: 10be 8cbc 4738 06bd 9c4c 78bc 4e79 88bc
00000040: 786f 16bd fcb0 14bc 5e9c 81bc 2371 8ebc
00000050: 3613 c9bc 0a97 05bd 0229 883c 7846 d3bb
00000060: b18a 293d 08dd a6bb fc1d 783c 9815 d0bb
00000070: 9b0b e3bc 1ef6 87bc 2090 8bbc 0076 b1bc
00000080: 7f70 0cbd 216c 033d 2108 0c3d d0b7 27bc
00000090: 2b53 cdbc f04d 533b 7b5c 193d d03f 0f3c
000000a0: 6abb e63c 4fee 043d b23d db3c 4419 1cbd
000000b0: 2805 cabc 2832 833c e8cc 913c 4061 8f3b
000000c0: 6625 f9bc 867d a33c 30c9 9fbc 053f 253d
000000d0: 222c a63c 5ac8 893c 7858 b53b ed47 133d
000000e0: f036 66bc 3178 283d cc6a 59bc 00fd ab3a
000000f0: fecc 9a3c 6370 103d 38ef bc3b cd20 013d
