Content/Network-3.pt (torch, 133200 bytes, 2 tensors)

weight f4 [64, 32, 4, 4]
000000 00 72 98 39 c1 4f 30 3d 80 ae 54 bb b6 48 ed 3c
       0.00029076636 0.04304481 -0.0032452643 0.028965335
000010 2a e5 bb 3c 4f 5b 08 bd c0 4e 05 3a d7 e7 04 3d
       0.022936422 -0.033290204 0.0005085282 0.032447662
000020 0a fd d2 3c f4 c8 52 3c 5c 9e 32 bd 8a 38 bb 3c
       0.025755424 0.012865294 -0.043608055 0.022854108
000030 61 0f 02 3d 60 85 1b 3b d9 7f 14 3d f6 45 ca bc
       0.031752948 0.002373062 0.036254738 -0.024691563
000040 af a6 04 3d f0 43 70 bb 4f ce 2d 3d 51 5c 12 3d
       0.032385524 -0.0036661588 0.04243308 0.03573257
000050 33 58 b3 bc d6 00 b9 3c be f0 b6 bc b0 a5 51 bc
       -0.021892643 0.022583406 -0.022331592 -0.012795851
000060 80 a8 03 bd 80 b0 94 b9 38 bd a4 3b c6 f9 98 3c
       -0.032143116 -0.00028360263 0.0050274394 0.018673789
000070 22 f5 c8 3c 8e e3 6c bc 58 57 c6 bb 58 43 e4 bb
       0.024530951 -0.01445855 -0.0060528927 -0.006966036
000080 cd 81 00 bd 6c fe 81 3c a0 c4 ca bb 5c b1 38 bc
       -0.031373788 0.015868388 -0.0061879903 -0.0112727545
000090 16 30 e7 3c 16 10 b2 3c df 24 0e 3d 92 93 cf 3c
       0.028221171 0.021736186 0.03470313 0.025338922
0000a0 1a 55 6f bc 5e d6 29 bd b4 03 2e 3c 06 65 a7 bc
       -0.014607692 -0.041464202 0.010621 -0.020433914
0000b0 46 b5 9d 3c a8 2e 8d bc cf c3 08 3d 9e 8d d3 3c
       0.019251477 -0.017234161 0.033389863 0.025824364
0000c0 7f 8c 00 bd 6e 7c f9 3c 0c 50 69 bc 68 19 16 bd
       -0.031383988 0.03045484 -0.014240276 -0.036645323
0000d0 52 80 cb 3c 80 ab ba b9 ae 1e 61 bc 9b 5d eb bc
       0.024841461 -0.00035604462 -0.013740225 -0.028731158
0000e0 92 98 fb 3c ff 3b b9 bc df 20 fc bc a8 b8 76 bc
       0.0307124 -0.022611616 -0.030777393 -0.015058674
0000f0 eb 6f 1c 3d 88 aa 62 bc d1 c0 11 3d d0 66 15 bb
       0.03819267 -0.013834603 0.035584275 -0.0022796877
000100 02 14 cf 3c e1 ed 1e bd cc 4c 17 bd 9a 41 fa 3c
       0.025278095 -0.038801078 -0.036938474 0.03054886
000110 e4 1b 18 3c b6 61 d9 bc 21 2a 23 3d 4e 0b ea 3c
       0.009283993 -0.02653585 0.0398351 0.028569844
000120 21 89 2d 3d 10 84 93 3c 10 cc 1b 3b d8 f9 60 3c
       0.042367104 0.018007308 0.0023772754 0.013731442
000130 f0 08 17 bb 4e a9 98 3c 90 b5 68 3b 67 93 29 3d
       -0.0023046099 0.018635418 0.003550861 0.04140034
000140 91 b0 f6 bc 87 32 bf bc 8a d0 18 bd 88 41 bd 3b
       -0.03011349 -0.023339523 -0.037308253 0.005775634
000150 d9 c4 2c 3d 18 5c 4b bc cf 56 1c 3d d9 32 0f 3d
       0.042179916 -0.012412094 0.038168725 0.0349606
000160 40 01 27 bb 20 df 6a bb b1 fe 1c 3d f7 c0 17 bd
       -0.0025482923 -0.003583856 0.03832883 -0.03704926
000170 66 69 cf bc dc 94 08 bc 5c 52 40 3c ad 27 2e 3d
       -0.025318813 -0.008336272 0.011738386 0.042518307
000180 bb 2c 00 bd f0 4a b7 bb f4 95 12 bd ae b3 89 bc
       -0.03129266 -0.00559365 -0.035787538 -0.01680931
000190 10 5a 1b bb 4a 1a 97 3c e1 40 91 bc 92 ff e1 3c
       -0.0023704804 0.018445153 -0.017731132 0.027587686
0001a0 fc d7 1e 3c e4 ce 14 bc 78 b1 ad bc 02 c1 c2 3c
       0.009695049 -0.00908253 -0.021202788 0.023773674
0001b0 a0 73 d6 ba 90 7a 06 3b 46 dd 19 bd d5 50 95 bc
       -0.0016361363 0.002051983 -0.03756454 -0.01822702
0001c0 72 4f c8 3c dc 06 19 bd 40 74 1d bc b9 99 11 3d
       0.024451945 -0.037360057 -0.009610236 0.035546992
0001d0 18 3f d8 bb 8e 7a d2 3c 20 48 9e bb 99 d5 10 bd
       -0.0065993182 0.025693204 -0.0048303753 -0.035359953
0001e0 ef ec 13 3d e0 45 68 bb aa 34 5d bc 8d c9 09 bd
       0.03611463 -0.003544204 -0.013501326 -0.03363948
0001f0 e5 03 1e 3d 9a 46 e7 bc 00 88 43 3b 20 a9 ba bb
       0.038577933 -0.028231908 0.00298357 -0.005696431
000200 7e 16 b0 3c ec 22 44 bc a6 b1 e2 3c 59 40 21 bd
       0.0214951 -0.011971217 0.0276726 -0.039368007
000210 10 f8 44 3b 77 fb 08 3d 10 2c 4e bc 61 5f 92 bc
       0.0030055083 0.03344294 -0.0125837475 -0.017867746
000220 f0 f8 9f bc 1c 96 2c 3c 26 fa ca bc c0 bc f5 bc
       -0.019527882 0.010533836 -0.024777483 -0.02999723
000230 01 99 ed bc 04 be 67 bc 48 60 77 3c 84 f6 57 bc
       -0.029003622 -0.014144424 0.015098639 -0.0131813325
000240 50 6d cc bb 00 20 0a bc 1d 66 d4 bc 08 3a f9 bc
       -0.006238617 -0.008430481 -0.025927598 -0.03042318
000250 4c 30 1e bd 1a bc ce 3c a6 8a a7 3c b0 76 2f 3b
       -0.03862028 0.025236178 0.020451855 0.0026773624
000260 d5 f9 2b 3d aa 8c 85 3c bc 27 39 bc e7 7b 19 bd
       0.041986305 0.016302425 -0.011300977 -0.037471678
000270 26 32 ba 3c b0 3f 5d 3c 48 8e 39 bc cf 4f 02 3d
       0.02272899 0.013503954 -0.011325426 0.031814393
000280 2c 67 97 bc 89 b4 2c 3d 48 ed 20 bd ac 9c 29 bc
       -0.018481813 0.04216436 -0.03928879 -0.010352295
000290 12 a0 a4 bc 0d 46 05 3d f2 fc c3 3c 82 ee d3 3c
       -0.020095859 0.03253751 0.023924325 0.025870565
0002a0 88 21 7e bc c6 8b 9d 3c 74 83 52 3c a4 45 bf bc
       -0.015510924 0.019231688 0.012848724 -0.023348637
0002b0 f8 c5 99 3b be 91 d7 3c f0 93 85 3b ac 4f 38 bc
       0.004692789 0.026314612 0.0040764734 -0.011249464
0002c0 08 e2 b9 3b f0 63 c1 bb e5 43 33 3d 2d ec 24 3d
       0.005672697 -0.005901806 0.04376592 0.040264297
0002d0 65 08 96 bc 37 45 2c bd 90 d3 63 bb 9c cb 1a bd
       -0.01831455 -0.042058196 -0.0034763552 -0.037791833
0002e0 72 9e c5 3c b2 7f a6 3c 80 22 2a bc 30 1e 3a 3c
       0.024123404 0.020324562 -0.010384202 0.011359736
0002f0 d4 8b 6d 3c 04 4c 44 bc 66 2d bb 3c c1 02 d2 bc
       0.01449867 -0.011981014 0.022848796 -0.025636079
000300 ee 83 f9 3c 00 2c 8d 39 12 35 f7 bc 97 ee 0e 3d
       0.030458417 0.00026926398 -0.030176673 0.034895506
000310 94 28 31 bd 9a b6 db 3c 73 ef 1b 3d 2e 0b 79 bc
       -0.04325159 0.02682047 0.038070153 -0.015200419
000320 be 40 33 bd f0 90 53 bb 01 41 24 3d 80 72 e4 3a
       -0.043762915 -0.0032282434 0.040101055 0.0017429143
000330 27 df 9d bc 00 20 dc 36 20 c9 07 3c af ce 2b bd
       -0.019271446 6.560236e-06 0.008287698 -0.041945156
000340 0f 23 0e 3d c8 bf 8d bc 3b 84 0e 3d 16 8c c9 3c
       0.034701403 -0.017303362 0.034794074 0.024602931
000350 68 3e 0e bd 94 f5 bb bc 9c 08 29 bd d7 71 c0 bc
       -0.034727484 -0.02294425 -0.041267976 -0.023491783
000360 f8 b0 a1 3b 33 85 83 bc 72 66 f2 3c a2 03 0c bd
       0.0049344264 -0.016054725 0.029589865 -0.034183152
000370 1f 98 f3 bc 3e 31 99 3c 75 6e 0c bd ba e6 c6 bc
       -0.029735623 0.018700238 -0.034285028 -0.02427994
000380 85 cb 29 3d 9b 2d ab bc 2c b0 37 bc cd 52 2a bd
       0.041453857 -0.02089577 -0.011211436 -0.04158287
000390 d4 4e 2d bd a3 e6 0b 3d 1c 7c 27 3c 96 22 d6 3c
       -0.042311504 0.0341555 0.010222461 0.026139539
0003a0 c9 de d0 bc 60 18 a7 3b 8e b2 ef 3c c2 fc 8f 3c
       -0.025496857 0.0050993413 0.029259946 0.017576579
0003b0 88 b3 3a bc fa 86 fb bc 76 e7 c4 3c 60 8e 5a bb
       -0.011395343 -0.03070401 0.02403615 -0.0033349022
0003c0 70 f0 2c bc 9c aa 0e bd 78 1b dd 3b 20 36 be 3b
       -0.010555372 -0.034830675 0.0067476593 0.005804792
0003d0 e8 67 9e bb 2a a7 e4 3c ca 68 ba bc 5d bc 00 bd
       -0.004834164 0.027911741 -0.022755045 -0.031429637
0003e0 31 93 13 3d 7c c6 28 3c 72 fb ed 3c 20 8d 51 3b
       0.036029045 0.010301229 0.029050563 0.0031974986
0003f0 95 82 1e bd 92 a7 9a bc d0 5c fa bb a2 2f c7 3c
       -0.03869875 -0.018878732 -0.0076404586 0.024314705

bias f4 [64]
000000 00 b5 c5 bc ff 5c f4 bc fb 24 d0 bc 93 97 00 3d
       -0.02413416 -0.0298295 -0.025408259 0.031394552
000010 c9 e1 e4 bc 5f a8 b2 bc f6 f2 f5 bc a4 2e 29 3c
       -0.027939694 -0.021808801 -0.03002308 0.010326061
000020 34 b3 32 bc c9 d9 11 3d c7 f1 18 bd c1 75 a4 bc
       -0.010906983 0.035608087 -0.03733995 -0.02007568
000030 27 f7 17 bd e3 9f 20 bd 2f d7 03 bd 25 72 13 bd
       -0.037100937 -0.03921498 -0.032187637 -0.03599753
000040 08 8a 88 3c ac 72 51 bc 00 69 a4 39 08 ee 70 bc
       0.01666738 -0.012783688 0.0003135875 -0.014705189
000050 15 e8 25 3d 40 59 c8 bb a0 a5 e9 3b 80 ff 80 b9
       0.040504534 -0.006114155 0.0071303397 -0.00024604425
000060 45 78 07 3d 64 cf 06 3c 2a ea ab 3c 60 d4 ba ba
       0.033073682 0.008228157 0.020985682 -0.0014253967
000070 b0 8b 40 bc 30 82 66 3c 7f 62 0d bd 00 2e 44 39
       -0.011752054 0.014069125 -0.03451776 0.00018709153
000080 d4 6f 23 bd ce a3 e2 3c 5f b7 07 bd 9c 15 ec bc
       -0.03990157 0.027665999 -0.03313386 -0.028818898
000090 68 66 66 bc 18 21 0d bc 32 79 a4 3c 88 0f f7 bc
       -0.0140625015 -0.008613847 0.020077322 -0.030158773
0000a0 f0 ef 30 3b 76 62 d1 bc 18 78 63 3c 0e 5d 9e 3c
       0.0026998483 -0.025559645 0.013883613 0.019331481
0000b0 20 d3 40 3c 10 6c 2c bd 3f 2c 1f 3d 79 fc 0a 3d
       0.011769086 -0.042095244 0.038860556 0.033932183
0000c0 b0 5c e3 3b 3f 0b dd bc c0 66 89 bb aa f3 9e bc
       0.0069385394 -0.026982902 -0.004193157 -0.019403297
0000d0 b6 14 9f bc 00 4b 77 3b 47 03 30 3d 65 6b c1 bc
       -0.019419055 0.0037733912 0.042971876 -0.02361078
0000e0 70 5a 91 3b cd 5a 1c 3d d0 7c a9 bb a8 b7 94 3c
       0.00443583 0.038172532 -0.0051723495 0.01815398
0000f0 de 4e c3 3c 51 d0 f9 bc f6 2c a7 3c 7c d1 8a 3c
       0.023841318 -0.03049484 0.020407181 0.016945593
