Content/Network-10.pt (torch, 3415 bytes, 2 tensors)

weight f4 [3, 128]
0	0xbd84f6d5	-0.06492392
1	0xbcaefb00	-0.02135992
2	0xbd007caf	-0.031368908
3	0x3da30bb1	0.07961214
4	0x3cbbc344	0.022920258
5	0xbd3766f3	-0.044775914
6	0x3b0a9e80	0.0021151602
7	0xbd4793a8	-0.0487248
8	0xbc0356c0	-0.008016288
9	0x3cbe0bc8	0.023198977
10	0x3db458cb	0.088059984
11	0x3d875449	0.06607873
12	0xbcf041ac	-0.02932819
13	0xbca14524	-0.01968629
14	0x3d5cff36	0.053954326
15	0xbc9696c0	-0.01838243
16	0xbd44269d	-0.047888387
17	0xbd491880	-0.04909563
18	0xbcd2b028	-0.025718763
19	0xbce75e22	-0.028243128
20	0xbb57fce0	-0.0032957122
21	0x3c2bda50	0.0104890615
22	0x3d77d786	0.060508274
23	0xba87e500	-0.001036793
24	0xbd665748	-0.05623558
25	0x3c480848	0.012209006
26	0x3d05dd72	0.03268189
27	0xbc4512a0	-0.012028366
28	0xbcf9266c	-0.030413829
29	0xbd471995	-0.04860838
30	0x3a331680	0.0006831661
31	0xbd8d04d8	-0.068856895
32	0x3d9bc54d	0.076059915
33	0xbd9d888f	-0.07692062
34	0x3d6902aa	0.056887306
35	0x3cc168d4	0.023609556
36	0xbd1b89fd	-0.037973393
37	0xbc64d898	-0.013967656
38	0xbd6203cf	-0.055179413
39	0xbd8323f7	-0.06403344
40	0x3cb83b74	0.022489287
41	0xbda08f1a	-0.078397945
42	0xbd2e6c50	-0.042583764
43	0xbcec6814	-0.028858222
44	0x3cef65e0	0.029223382
45	0xbcdae31e	-0.026719626
46	0xbd52a689	-0.05142835
47	0x3d68106a	0.05665628
48	0xbd85caa9	-0.06532795
49	0xbd563e87	-0.052305724
50	0x3d986281	0.07440663
51	0x3d95ef15	0.07320992
52	0x3ce196c0	0.027537704
53	0x3d88e0c7	0.06683498
54	0xbbd9fb00	-0.006652236
55	0xbd9b99c6	-0.07597689
56	0xbc86af30	-0.016440958
57	0x3d502e72	0.050825544
58	0xbceb1696	-0.028697293
59	0x3da88c63	0.08229902
60	0x3d2c5296	0.042070948
61	0xbc88f168	-0.016716674
62	0x3bec98c0	0.0072203577
63	0x3cd65d74	0.026167609
64	0x3c2e1a68	0.010626413
65	0x3cee7a0c	0.02911093
66	0xbda88e56	-0.082302734
67	0xbd8a9094	-0.06765857
68	0xbd6d1633	-0.0578825
69	0x3d96fbe1	0.07372261
70	0xbd0d21aa	-0.034455933
71	0xbd2493ee	-0.04018014
72	0x3d5b6582	0.053563602
73	0x3ce2ce64	0.027686305
74	0x3d93dd4b	0.07219943
75	0x3d92690f	0.071489446
76	0xbd1cd53f	-0.038289305
77	0xbd188b33	-0.037242126
78	0x3d5b828e	0.053591304
79	0x3d63d8d6	0.055626713
80	0x3d66b982	0.056329258
81	0xbd8cab62	-0.06868626
82	0xbd998820	-0.07496667
83	0xbd411195	-0.04713591
84	0xbcc4a058	-0.02400224
85	0x3da53d95	0.080683865
86	0xbd12e6d0	-0.03586465
87	0xbd04f822	-0.0324632
88	0x3c0d2190	0.008613959
89	0x3d8e447b	0.06946655
90	0x3bc28ab0	0.005936943
91	0xbc2cfb90	-0.010558024
92	0x3d2acdae	0.041700058
93	0x3cf9dfdc	0.030502252
94	0xbdb39cf7	-0.08770173
95	0xbda53182	-0.080660835
96	0xbceb9600	-0.028758049
97	0xbd0a27cd	-0.033729363
98	0x3c48ef28	0.012264051
99	0x3d8ddfa1	0.069274195
100	0x3d827333	0.06369629
101	0x3d088984	0.03333427
102	0x3d70693e	0.058694117
103	0x3d9def4d	0.077116586
104	0x3d570fce	0.052505307
105	0x3d4092b6	0.047014914
106	0x3d9cf09f	0.07663082
107	0xbd3519a7	-0.044213917
108	0x3db4ff89	0.08837802
109	0xbce02eba	-0.027366031
110	0x3cda8574	0.026674964
111	0xbbdd21d0	-0.0067484155
112	0xbd2927f5	-0.04129787
113	0xbceb57d6	-0.028728407
114	0xbc57a5a0	-0.013162047
115	0xbd74ebb6	-0.059795104
116	0xbd5e2ecf	-0.05424386
117	0x3da73d5f	0.081660025
118	0x3d5a38e6	0.05327692
119	0xbb910600	-0.004425764
120	0xbdad7618	-0.0846979
121	0xbc0a5018	-0.008441947
122	0xbd970b40	-0.07375193
123	0xbd1753c6	-0.036945127
124	0xbd1c1be8	-0.03811255
125	0xbca3c9bc	-0.019993655
126	0xbd4271f9	-0.047471974
127	0xbd6fcd5a	-0.058545448
128	0xbd824f4f	-0.06362783
129	0x3d5f1bca	0.05446986
130	0xbdb1fd66	-0.0869091
131	0xbd84b61b	-0.06480046
132	0xbcee36ca	-0.02907886
133	0xbba8a300	-0.0051463842
134	0x3b6b27e0	0.0035881922
135	0xbdb4d6b2	-0.088300124
136	0xbdaa4cb2	-0.0831541
137	0x3d608e52	0.054823227
138	0x3da4e939	0.08052296
139	0xbd064dc0	-0.032788992
140	0x3d98a0e9	0.07452566
141	0x3d997b05	0.07494167
142	0x3d83b4f7	0.06431001
143	0xbd6c49b6	-0.057687484
144	0x3d5713da	0.052509166
145	0x3bbca9e0	0.0057575554
146	0xbcd2bc7c	-0.025724642
147	0xbd3a77ce	-0.04552441
148	0xbb8b3da0	-0.0042492896
149	0x3d993ab9	0.074819036
150	0xbd4c0367	-0.049807932
151	0x3d27c486	0.040958904
152	0x3c747e78	0.014922731
153	0xbc9ba160	-0.018997848
154	0x3c7991f0	0.015232548
155	0xbd9d4a4d	-0.076801874
156	0x3d0d81f2	0.034547754
157	0x3ba2cd10	0.004968293
158	0xbd0ec71c	-0.034857854
159	0xbd924c66	-0.07143478
160	0xbd01f905	-0.031731624
161	0xbd878894	-0.06617847
162	0xbd468bc6	-0.048473142
163	0xbd95eaed	-0.07320199
164	0x3d57f622	0.052724965
165	0xbbcd6ee0	-0.006269321
166	0x3db2a1b3	0.08722248
167	0xbbfdd2c0	-0.0077460706
168	0xbc928cf8	-0.017889485
169	0xbd0dc5db	-0.034612518
170	0x3d363d46	0.04449203
171	0x3d985dbf	0.07439756
172	0xbd66df7f	-0.056365486
173	0x3c881818	0.016613051
174	0xbbec4d10	-0.007211335
175	0x3c997c78	0.01873611
176	0x3ca413bc	0.020028941
177	0xbcce932c	-0.025216661
178	0x3d33d52a	0.04390446
179	0x3cec45c8	0.028841868
180	0x3d7b0e3a	0.061292864
181	0x3cc5813c	0.024109475
182	0xbc231370	-0.009953365
183	0x3dae7835	0.085190214
184	0xbd6ce914	-0.057839468
185	0xbd139454	-0.03603013
186	0x3d74e4fa	0.05978868
187	0x3d3614c6	0.044453405
188	0x3d1c094a	0.038094796
189	0xbd63dcc3	-0.055630457
190	0x3da24c77	0.07924741
191	0x3d77b236	0.06047269
192	0x3d0f4aca	0.034983434
193	0x3c0fd9e8	0.00877998
194	0x3c5bfc40	0.01342684
195	0x3d438022	0.04772962
196	0x3c53a868	0.012918569
197	0xbc66ba50	-0.014082506
198	0xbd2f2e56	-0.0427688
199	0x3d6a8206	0.057252906
200	0xbceca0d2	-0.028885279
201	0xbcfa12d2	-0.030526552
202	0xbc843b08	-0.01614143
203	0xbda91836	-0.08256571
204	0x3d9ec643	0.07752659
205	0xbca29930	-0.019848436
206	0xbd3f8fb9	-0.046767924
207	0xbc457620	-0.012052089
208	0x3d5be9fe	0.05368995
209	0x3d7c963e	0.06166672
210	0x3d1b8536	0.037968837
211	0xbd7a34c8	-0.061085492
212	0x3d147fda	0.03625474
213	0xbd5d589c	-0.054039583
214	0x3c8ec8c0	0.01742971
215	0xbd6f0e56	-0.05836328
216	0xbd883acf	-0.06651842
217	0x3ca2295c	0.019795112
218	0x3da625f3	0.08112707
219	0x3c47a8d0	0.012186244
220	0x3d58d616	0.052938543
221	0x3d6b3176	0.057420217
222	0xbd9fae14	-0.07796875
223	0x3cda03b8	0.026613101
224	0xbc906374	-0.017625548
225	0x3d343faa	0.044006027
226	0x3da03d77	0.078242235
227	0xbda34a65	-0.07973174
228	0x3d861c85	0.065484084
229	0xbd9ba346	-0.07599501
230	0xbd5c5988	-0.05379632
231	0xbd933932	-0.071886435
232	0x3c936ca0	0.017996132
233	0xbb37f6c0	-0.0028070658
234	0x3d9d4689	0.07679469
235	0x3da836f1	0.08213604
236	0x3c094738	0.008378796
237	0x3da78bfd	0.081809975
238	0x3d5f5302	0.05452252
239	0x3d285f0e	0.041106276
240	0x3c317af8	0.010832541
241	0x3cafcdd4	0.021460451
242	0x3d747ea6	0.059691094
243	0xbd02ba31	-0.031915847
244	0x3c869c0c	0.01643183
245	0x3c700f10	0.014652029
246	0x3d34314a	0.04399232
247	0xbdb34220	-0.08752847
248	0xbcbf2494	-0.023332871
249	0xbd17ed1b	-0.037091356
250	0xbc83213c	-0.016007058
251	0xbbc20490	-0.005920954
252	0x3d2ed27e	0.04268121
253	0xbc968edc	-0.018378668
254	0x3cfd1aa0	0.030896485
255	0x3ce820ec	0.02833601

bias f4 [3]
0	0x3daced23	0.08443668
1	0x3d9a7f57	0.075438194
2	0xbd1dce20	-0.038526654
